Model Architecture:
FusionModel(
  (conformer): ConformerTinyBinary(
    (conv): Sequential(
      (0): Conv2d(3, 256, kernel_size=(3, 3), stride=(2, 2), padding=(1, 1))
      (1): BatchNorm2d(256, eps=1e-05, momentum=0.1, affine=True, track_running_stats=True)
      (2): ReLU()
      (3): Dropout2d(p=0.2, inplace=False)
      (4): Conv2d(256, 256, kernel_size=(3, 3), stride=(2, 2), padding=(1, 1))
      (5): BatchNorm2d(256, eps=1e-05, momentum=0.1, affine=True, track_running_stats=True)
      (6): ReLU()
      (7): Dropout2d(p=0.2, inplace=False)
      (8): Conv2d(256, 256, kernel_size=(3, 3), stride=(2, 2), padding=(1, 1))
      (9): BatchNorm2d(256, eps=1e-05, momentum=0.1, affine=True, track_running_stats=True)
      (10): ReLU()
      (11): Dropout2d(p=0.2, inplace=False)
    )
    (transformer): TransformerEncoder(
      (layers): ModuleList(
        (0-2): 3 x TransformerEncoderLayer(
          (self_attn): MultiheadAttention(
            (out_proj): NonDynamicallyQuantizableLinear(in_features=256, out_features=256, bias=True)
          )
          (linear1): Linear(in_features=256, out_features=2048, bias=True)
          (dropout): Dropout(p=0.1, inplace=False)
          (linear2): Linear(in_features=2048, out_features=256, bias=True)
          (norm1): LayerNorm((256,), eps=1e-05, elementwise_affine=True)
          (norm2): LayerNorm((256,), eps=1e-05, elementwise_affine=True)
          (dropout1): Dropout(p=0.1, inplace=False)
          (dropout2): Dropout(p=0.1, inplace=False)
        )
      )
    )
    (fc): Linear(in_features=256, out_features=2, bias=True)
  )
  (feedforward): FeedforwardNN(
    (fc): Sequential(
      (0): Linear(in_features=43, out_features=128, bias=True)
      (1): ReLU()
      (2): Dropout(p=0.2, inplace=False)
      (3): Linear(in_features=128, out_features=128, bias=True)
      (4): ReLU()
      (5): Linear(in_features=128, out_features=2, bias=True)
    )
  )
  (fusion_fc): Sequential(
    (0): Linear(in_features=384, out_features=256, bias=True)
    (1): ReLU()
    (2): Dropout(p=0.0, inplace=False)
    (3): Linear(in_features=256, out_features=128, bias=True)
    (4): ReLU()
    (5): Dropout(p=0.0, inplace=False)
    (6): Linear(in_features=128, out_features=64, bias=True)
    (7): ReLU()
    (8): Dropout(p=0.0, inplace=False)
    (9): Linear(in_features=64, out_features=2, bias=True)
  )
)

Hyperparameters:
Batch Size: 64
Learning Rate: 0.0001
Number of Epochs: 50
Dropout Rate: 0.0
Optimizer: Adam
Loss Function: CrossEntropyLoss

Training Results:
Final Train Loss: 0.4751
Final Train Accuracy: 0.7727

Validation Results:
Best Validation Loss: 0.3914
Best Validation Accuracy: 0.8533

Test Results:
Test Loss: 0.4813
Test Accuracy: 0.7273
…
